{"class_name": "Sequential", "config": [{"class_name": "Conv2D", "config": {"batch_input_shape": [null, 60, 60, 3], "dilation_rate": [1, 1], "dtype": "float32", "kernel_regularizer": null, "bias_constraint": null, "kernel_constraint": null, "trainable": true, "bias_initializer": {"class_name": "Zeros", "config": {}}, "data_format": "channels_last", "activation": "relu", "strides": [1, 1], "activity_regularizer": null, "bias_regularizer": null, "kernel_size": [3, 3], "padding": "valid", "kernel_initializer": {"class_name": "VarianceScaling", "config": {"scale": 1.0, "mode": "fan_avg", "distribution": "uniform", "seed": null}}, "use_bias": true, "filters": 32, "name": "conv2d_1"}}, {"class_name": "MaxPooling2D", "config": {"data_format": "channels_last", "pool_size": [2, 2], "trainable": true, "padding": "valid", "strides": [2, 2], "name": "max_pooling2d_1"}}, {"class_name": "Dropout", "config": {"trainable": true, "rate": 0.2, "name": "dropout_1"}}, {"class_name": "Conv2D", "config": {"bias_initializer": {"class_name": "Zeros", "config": {}}, "dilation_rate": [1, 1], "kernel_regularizer": null, "bias_constraint": null, "activation": "relu", "trainable": true, "use_bias": true, "data_format": "channels_last", "kernel_constraint": null, "strides": [1, 1], "activity_regularizer": null, "bias_regularizer": null, "kernel_size": [4, 4], "padding": "valid", "kernel_initializer": {"class_name": "VarianceScaling", "config": {"scale": 1.0, "mode": "fan_avg", "distribution": "uniform", "seed": null}}, "filters": 50, "name": "conv2d_2"}}, {"class_name": "MaxPooling2D", "config": {"data_format": "channels_last", "pool_size": [2, 2], "trainable": true, "padding": "valid", "strides": [2, 2], "name": "max_pooling2d_2"}}, {"class_name": "Flatten", "config": {"trainable": true, "name": "flatten_1"}}, {"class_name": "Dense", "config": {"bias_initializer": {"class_name": "Zeros", "config": {}}, "units": 100, "bias_constraint": null, "kernel_constraint": null, "kernel_regularizer": null, "activation": "relu", "trainable": true, "activity_regularizer": null, "kernel_initializer": {"class_name": "VarianceScaling", "config": {"scale": 1.0, "mode": "fan_avg", "distribution": "uniform", "seed": null}}, "use_bias": true, "bias_regularizer": null, "name": "dense_1"}}, {"class_name": "Dense", "config": {"bias_initializer": {"class_name": "Zeros", "config": {}}, "units": 60, "bias_constraint": null, "kernel_constraint": null, "kernel_regularizer": null, "activation": "relu", "trainable": true, "activity_regularizer": null, "kernel_initializer": {"class_name": "VarianceScaling", "config": {"scale": 1.0, "mode": "fan_avg", "distribution": "uniform", "seed": null}}, "use_bias": true, "bias_regularizer": null, "name": "dense_2"}}, {"class_name": "Dense", "config": {"bias_initializer": {"class_name": "Zeros", "config": {}}, "units": 2, "bias_constraint": null, "kernel_constraint": null, "kernel_regularizer": null, "activation": "softmax", "trainable": true, "activity_regularizer": null, "kernel_initializer": {"class_name": "VarianceScaling", "config": {"scale": 1.0, "mode": "fan_avg", "distribution": "uniform", "seed": null}}, "use_bias": true, "bias_regularizer": null, "name": "dense_3"}}], "keras_version": "2.0.4", "backend": "tensorflow"}